{"format": "torch", "nodes": [{"name": "alpha_net", "id": 46915151186464, "class_name": "MLP(\n  (linear_layers): ModuleList(\n    (0): Linear(in_features=3, out_features=500, bias=True)\n    (1): Linear(in_features=500, out_features=500, bias=True)\n    (2): Linear(in_features=500, out_features=500, bias=True)\n    (3): Linear(in_features=500, out_features=500, bias=True)\n    (4): Linear(in_features=500, out_features=500, bias=True)\n    (5): Linear(in_features=500, out_features=500, bias=True)\n    (6): Linear(in_features=500, out_features=500, bias=True)\n    (7): Linear(in_features=500, out_features=500, bias=True)\n    (8): Linear(in_features=500, out_features=500, bias=True)\n    (9): Linear(in_features=500, out_features=1, bias=True)\n  )\n)", "parameters": [["linear_layers.0.weight", [500, 3]], ["linear_layers.0.bias", [500]], ["linear_layers.1.weight", [500, 500]], ["linear_layers.1.bias", [500]], ["linear_layers.2.weight", [500, 500]], ["linear_layers.2.bias", [500]], ["linear_layers.3.weight", [500, 500]], ["linear_layers.3.bias", [500]], ["linear_layers.4.weight", [500, 500]], [
…
inear_layers.5.bias", [500]], ["linear_layers.6.weight", [500, 500]], ["linear_layers.6.bias", [500]], ["linear_layers.7.weight", [500, 500]], ["linear_layers.7.bias", [500]], ["linear_layers.8.weight", [500, 500]], ["linear_layers.8.bias", [500]], ["linear_layers.9.weight", [1, 500]], ["linear_layers.9.bias", [1]]], "output_shape": [[512, 1]], "num_parameters": [1500, 500, 250000, 500, 250000, 500, 250000, 500, 250000, 500, 250000, 500, 250000, 500, 250000, 500, 250000, 500, 500, 1]}, {"name": "heat_source_net", "id": 46915151187808, "class_name": "MLP(\n  (linear_layers): ModuleList(\n    (0): Linear(in_features=2, out_features=500, bias=True)\n    (1): Linear(in_features=500, out_features=500, bias=True)\n    (2): Linear(in_features=500, out_features=500, bias=True)\n    (3): Linear(in_features=500, out_features=500, bias=True)\n    (4): Linear(in_features=500, out_features=500, bias=True)\n    (5): Linear(in_features=500, out_features=500, bias=True)\n    (6): Linear(in_features=500, out_features=500, bias=True)\n    (7): Linear(in_features=500, out_features=500, bias=True)\n    (8): Linear(in_features=500, out_features=500, bias=True)\n    (9): Linear(in_features=500, out_features=1, bias=True)\n  )\n)", "parameters": [["linear_layers.0.weight", [500, 2]], ["linear_layers.0.bias", [500]], ["linear_layers.1.weight", [500, 500]], ["linear_layers.1.bias", [500]], ["linear_layers.2.weight", [500, 500]], ["linear_layers.2.bias", [500]], ["linear_layers.3.weight", [500, 500]], ["linear_layers.3.bias", [500]], ["linear_layers.4.weight", [500, 500]], [
…
